official/adversarial/src/webapp/model.pth (torch_old, 92630 bytes, 20 tensors)

conv1.weight f4 [10, 1, 7, 7]
0	0xbc732f29	-0.014842787
1	0x3d78b81e	0.060722463
2	0x3e3bf132	0.18353727
3	0x3e8a2ae2	0.26985842
4	0xbdc49b51	-0.09599937
5	0x3da092f3	0.07840528
6	0x3e9ad28d	0.30238762
7	0xbd0daf48	-0.03459099
8	0x3cb8f7da	0.022579122
9	0x3dddf570	0.10837829
10	0x3e88a80a	0.26690704
11	0x3e9c2585	0.30497375
12	0x3eafff2b	0.34374365
13	0x3eb58f4a	0.35460883
14	0xbe200aa7	-0.15629064
15	0xbe368770	-0.17825103
16	0xbd3def00	-0.046370506
17	0x3e1ec06f	0.15503095
18	0x3ee5d528	0.44889188
19	0x3ec8df33	0.39232787
20	0x3e80a481	0.25125507
21	0xbe80b2a6	-0.25136298
22	0xbe1adea3	-0.15123992
23	0xbda7fda8	-0.08202678
24	0x3d86ff08	0.06591612
25	0x3e6c66a9	0.23086037
26	0x3e9fc873	0.31207618
27	0x3e8460e4	0.25855172
28	0xbeb85f96	-0.36010426
29	0x3bd6d38d	0.0065559805
30	0x3c2c1efc	0.010505434
31	0x3dd1cbb2	0.1024393
32	0x3e12dc00	0.14341736
33	0xbb81c579	-0.003960308
34	0xbd496bc5	-0.049175043
35	0xbe45172e	-0.19247124
36	0x3d82a92e	0.06379925
37	0xbdb6cbc6	-0.089255854
38	0xbd80fd57	-0.06298321
39	0xbdbf079a	-0.09327622
40	0x3db10d2b	0.0864509
41	0xbdde2c5c	-0.10848305
42	0xbbe6b839	-0.007041004
43	0xbe39cabe	-0.18143746
44	0xbea9f6da	-0.33196145
45	0xbe900c7f	-0.28134534
46	0xbeab4f18	-0.3345878
47	0xbe703479	-0.23457517
48	0xbec19666	-0.37810057
49	0x3f836ff8	1.0268545
50	0xbf57af9b	-0.8425233
51	0xbf9162b9	-1.1358253
52	0xbd736f1f	-0.059432145
53	0x3efc72c4	0.4930631
54	0x3f5dcadb	0.8663766
55	0x3f5c5ff9	0.8608394
56	0x3fa04ff8	1.2524405
57	0xbf7af64d	-0.98032075
58	0xbf986bcf	-1.19079
59	0xbf131cbb	-0.57465714
60	0x3eb49835	0.35272375
61	0x3fac4812	1.3459494
62	0x4000f164	2.0147333
63	0x3f1edbad	0.6205395
64	0xbfc02401	-1.5010988
65	0xbfd0fc50	-1.6327
66	0xbf20ee39	-0.628635
67	0x3f853b15	1.0408655
68	0x3fb73f4f	1.4316195
69	0x3fa801fc	1.3125606
70	0xbeb1b592	-0.3470884
71	0xbfb3741b	-1.4019808
72	0xbf80b18d	-1.0054184
73	0x3e985590	0.2975278
74	0x3fe258ba	1.7683327
75	0x3fb700c9	1.4297115
76	0x3f38f94a	0.72255385
77	0xbf52c525	-0.8233207
78	0xbee5c906	-0.4487993
79	0xbea0927a	-0.31361753
80	0x3f6486f5	0.8926843
81	0x3fa38d47	1.277749
82	0x3f502472	0.8130561
83	0xbc5e1532	-0.013554858
84	0xbf026f6e	-0.5095128
85	0x3eae9981	0.3410149
86	0x3ef153c3	0.47134218
87	0x3f98ef03	1.194794
88	0x3f6733be	0.9031333
89	0x3e7f960c	0.24959582
90	0xbe5eda31	-0.21762921
91	0x3e40b685	0.18819626
92	0x3f4b5dff	0.794403
93	0x3f192517	0.5982222
94	0x3ecd7300	0.401268
95	0xbd53574a	-0.051596917
96	0xbec5b1e5	-0.38612285
97	0xbf6e5fc5	-0.9311488
98	0xbeb8f413	-0.36123714
99	0xbe934363	-0.2876235
100	0xbe0d6c54	-0.13810855
101	0xbe70ac10	-0.23503137
102	0xbe1a7243	-0.1508265
103	0xbe16dfe6	-0.14733848
104	0xbe78992c	-0.2427718
105	0xbea1f349	-0.31630924
106	0xbddcf00c	-0.10787973
107	0xbd8b72f4	-0.06809035
108	0x3db96421	0.09052301
109	0x3db9e32f	0.09076535
110	0xbd669660	-0.056295753
111	0xbdd70c7b	-0.10500427
112	0xbd815b0e	-0.063161954
113	0xbe3bb680	-0.18331337
114	0x3ccce065	0.025009343
115	0x3e97ed08	0.29673028
116	0x3eccbcb3	0.39987716
117	0x3dd5f2aa	0.10446675
118	0xbdf930b4	-0.121674925
119	0xbdd215cf	-0.10258066
120	0xbe350269	-0.176767
121	0xbc541258	-0.012943827
122	0x3eafab2d	0.34310284
123	0x3eb551c1	0.35413936
124	0x3e1bc625	0.15212305
125	0xbc858fef	-0.016303984
126	0xbe7bf7f5	-0.24606307
127	0xbe834523	-0.25638685
128	0xbe27fca5	-0.1640497
129	0x3daf89d8	0.085712135
130	0x3def12f1	0.11673535
131	0x3db8f63c	0.090313405
132	0x3e0cc2f8	0.1374625
133	0xbe321c63	-0.17393641
134	0xbe445499	-0.19172896
135	0xbe059d8c	-0.1304838
136	0x3d809338	0.0627808
137	0x3d218292	0.039431162
138	0xbdb6c162	-0.089236036
139	0xbe168394	-0.1469863
140	0xbdacd6f1	-0.08439434
141	0xbd83672b	-0.06416162
142	0xbc577121	-0.013149531
143	0x3e0b4af5	0.13602813
144	0x3c19a7b0	0.009378359
145	0xbdd60d66	-0.10451774
146	0xbe331140	-0.17487049
147	0x3ee54bb1	0.4478431
148	0x3e89d0c9	0.26917103
149	0x3dcd1219	0.100132175
150	0x3e04d8ef	0.12973379
151	0x3ea61752	0.32439667
152	0x3e6491ca	0.22321239
153	0x3eb5cd02	0.3550797
154	0x3e505a6e	0.20346996
155	0xbeb30119	-0.34961775
156	0xbef3cef3	-0.47618827
157	0x3baaf8a1	0.005217627
158	0x3dde285b	0.10847541
159	0xbd8ea0dd	-0.06964276
160	0x3c8d83b1	0.01727471
161	0xbeb776b6	-0.35832757
162	0xbea3f88a	-0.32025558
163	0x3d9de926	0.07710485
164	0x3e2016b8	0.15633667
165	0x3e25f8f1	0.16208245
166	0x3cc09bdc	0.02351182
167	0x3f125f77	0.5717692
168	0xbf89767a	-1.0739281
169	0xbe24e5f8	-0.16103351
170	0x3effb1c3	0.4994031
171	0x3f24b9b2	0.6434585
172	0x3ed8c7a4	0.42339814
173	0x3f00b12a	0.5027033
174	0x3f55b826	0.83484113
175	0xbfdb2019	-1.711917
176	0xbf4f86e2	-0.8106519
177	0xbe8dbee0	-0.2768469
178	0x3db11713	0.08646979
179	0x3f0aeba3	0.54265803
180	0x3f0abe1c	0.54196334
181	0x3ea92ace	0.3304047
182	0xc0071eea	-2.1112618
183	0xc009fafd	-2.155944
184	0xc0056d13	-2.0847824
185	0xbf9fdea8	-1.2489824
186	0xbf842568	-1.0323915
187	0xbf9fdd6e	-1.248945
188	0xbf98dcfa	-1.1942437
189	0x3f3267df	0.69689745
190	0xbdaf6c68	-0.08565599
191	0xbf9d63d7	-1.2296094
192	0xbff270f8	-1.8940725
193	0xc006632f	-2.0998037
194	0xbfb9d717	-1.4518765
195	0xbfce4a67	-1.6116456
196	0x3e4c95ff	0.19979094
197	0xbe2d6e64	-0.16936642
198	0xbd716746	-0.05893638
199	0x3e9203ab	0.28518423
200	0x3f64b99b	0.8934571
201	0x3f2a9c91	0.6664515
202	0x3f306344	0.6890147
203	0xbe2c6845	-0.1683665
204	0xbebc6dde	-0.36802572
205	0xbee1e575	-0.44120374
206	0xbdef640d	-0.11689005
207	0x3f12d562	0.57356846
208	0x3f334b19	0.70036465
209	0x3f8e0e14	1.1098046
210	0xbe3cfdc4	-0.18456179
211	0xbed49189	-0.41517285
212	0xbf25a787	-0.6470875
213	0xbebad905	-0.36493698
214	0x3e6e5956	0.23276266
215	0x3f3a12f9	0.726852
216	0x3f8abff9	1.0839835
217	0xbf0779f0	-0.52920437
218	0xbf31bf99	-0.6943298
219	0xbf28fa28	-0.6600671
220	0xbf2d9fe5	-0.67822105
221	0x3ea5e963	0.32404622
222	0x3f2e8218	0.6816726
223	0x3f026c55	0.5094655
224	0xbf91f235	-1.1402041
225	0xbfa355a9	-1.2760516
226	0xbf8cc0c9	-1.0996333
227	0xbede3587	-0.43400213
228	0x3e802f25	0.25035968
229	0x3f47032f	0.7773923
230	0x3e8f9bb7	0.28048488
231	0xbfcc1979	-1.5945274
232	0xbf8005a6	-1.0001724
233	0xbf249107	-0.64283794
234	0xbea7e902	-0.32794958
235	0x3e7b2c4a	0.24528614
236	0x3f15bd72	0.58492196
237	0x3eb979f6	0.3622586
238	0x3e6d46c7	0.2317153
239	0x3f091fd3	0.53564185
240	0x3ee0064d	0.43754807
241	0x3ea98887	0.33111975
242	0x3f1b251e	0.6060351
243	0x3f5abd78	0.85445356
244	0x3e78d069	0.24298252
245	0xbf24b103	-0.643326
246	0xbfb4634f	-1.4092807
247	0xbf3c5556	-0.7356771
248	0xbc3e1402	-0.01160145
249	0x3f765ea5	0.96238166
250	0x3f8c1f00	1.094696
251	0x3f8e7df4	1.1132188
252	0xbf4abd59	-0.7919517
253	0xbf3239d4	-0.6961949
254	0x3f175626	0.5911583
255	0x3fadeeb7	1.3588475

conv1.bias f4 [10]
0	0x81c6eb9a	-7.3071785e-38
1	0x3b5c5cb0	0.0033624582
2	0x80b91132	-1.6995735e-38
3	0x39fe580c	0.00048512255
4	0x3af1d994	0.0018451684
5	0xbadd8d63	-0.0016903098
6	0x3ad2887d	0.0016062405
7	0x801302d2	-1.745886e-39
8	0x3ac39676	0.001492216
9	0x3a19a039	0.0005860362

bn1.weight f4 [10]
0	0x3c8def87	0.01732613
1	0xbfa51727	-1.289769
2	0x3d94475c	0.07240173
3	0x3ff57d42	1.9178851
4	0x3f6e579f	0.9310245
5	0x3f20e809	0.6285406
6	0x3f736f55	0.95091754
7	0x3ca21e45	0.019789824
8	0x3f44c3c6	0.76861227
9	0x3f8e2aa9	1.1106769

bn1.bias f4 [10]
0	0xbe63a8cc	-0.2223236
1	0xbedaa1af	-0.4270148
2	0xbe7104f8	-0.23537052
3	0xbf19842b	-0.599673
4	0xbeb2f612	-0.34953362
5	0xbd8c089e	-0.06837581
6	0xbeae7438	-0.34073043
7	0xbd9f72d9	-0.07785577
8	0xbf16f16d	-0.58962137
9	0xbf7fc05c	-0.9990289

bn1.running_mean f4 [10]
0	0x3e7f57ba	0.24935809
1	0x401dc658	2.465231
2	0xbedb4e34	-0.42833102
3	0xc07883d5	-3.8830464
4	0x3e44e4b1	0.19227864
5	0xbe2af9ec	-0.166969
6	0xbe197449	-0.14985766
7	0xbda7d085	-0.08194069
8	0x3f72bf37	0.9482302
9	0xbfbdcee5	-1.4828764

bn1.running_var f4 [10]
0	0x41480b67	12.502784
1	0x4374c85a	244.78262
2	0x40bf23c8	5.973118
3	0x436873c7	232.45226
4	0x430b8351	139.51295
5	0x42618b04	56.385757
6	0x425ecf30	55.70233
7	0x3d873cc2	0.066033855
8	0x423050e8	44.07901
9	0x42956bfb	74.7109

conv2.weight f4 [20, 10, 5, 5]
0	0xbebc63f0	-0.36794996
1	0xbd317391	-0.043323103
2	0xbcb71224	-0.022347517
3	0xbd8a3304	-0.06748012
4	0xbc462336	-0.012093356
5	0xbc11e484	-0.00890458
6	0x3e612de3	0.2199016
7	0xbd71e69d	-0.05905782
8	0xbde6853d	-0.11255882
9	0x3e005268	0.12531435
10	0x3dff1948	0.12455994
11	0x3dfb944e	0.12284146
12	0xbd4de900	-0.050271034
13	0xbd012c52	-0.031536408
14	0x3c1be96e	0.009516103
15	0x3d6a1087	0.057144668
16	0x3dba696d	0.091021396
17	0xbcec831f	-0.028871117
18	0xbdadea27	-0.08491927
19	0xbe00558c	-0.12532634
20	0x3c91cb41	0.017797114
21	0xbc8b9cfd	-0.017042631
22	0xbca1c1df	-0.019745765
23	0xbcacea47	-0.021107806
24	0xbd1b4ef8	-0.037917107
25	0x3f4677bc	0.7752645
26	0x3f781f4d	0.9692276
27	0x3f41a105	0.7563632
28	0xbf868bb4	-1.0511384
29	0xbe2f8aa5	-0.17142732
30	0xbe9e4b83	-0.30916986
31	0x3e731323	0.23737769
32	0xbe90c907	-0.28278372
33	0xbe291b11	-0.16514231
34	0x3c44d7ee	0.012014372
35	0xbf9326bd	-1.1496197
36	0xbf1de41c	-0.6167619
37	0xbf379b6a	-0.7172152
38	0xbf091fc3	-0.5356409
39	0x3df566be	0.11982487
40	0x3ea36dab	0.31919608
41	0xbe9a9c39	-0.30197313
42	0xbed1f8b8	-0.4101007
43	0xbf200a41	-0.62515646
44	0xbf2a3d36	-0.6649965
45	0x3f6ae6ed	0.91758615
46	0x3f220672	0.63291085
47	0x3f182756	0.5943502
48	0xbeb30ac2	-0.34969145
49	0xbf5b4c22	-0.85663044
50	0x3a3dd8c6	0.00072420796
51	0x3dabb196	0.08383481
52	0x3dace706	0.08442502
53	0xbd00d473	-0.031452607
54	0xbbb77f87	-0.0055999192
55	0x3d0c1d67	0.034207728
56	0x3dcae11c	0.099062175
57	0x3da62177	0.08111852
58	0xbcc5750a	-0.02410366
59	0xb9925e32	-0.0002791747
60	0xbd243034	-0.040085033
61	0x3dfbe9e0	0.123004675
62	0x3d0ead43	0.034833204
63	0xbd874cdf	-0.06606459
64	0x3cadf867	0.021236612
65	0x3ca888be	0.020573016
66	0x3e56a39d	0.20960851
67	0x3d4c3c6d	0.049862314
68	0xbc320468	-0.010865308
69	0x3d3b9a3d	0.04580139
70	0x3da3bccb	0.07994994
71	0x3e76bf19	0.24096335
72	0x3d85aa74	0.06526652
73	0x3d217ebc	0.039427504
74	0x3dd0174f	0.10160696
75	0xbfd7b493	-1.6851982
76	0xbff66e9f	-1.9252509
77	0xbfd1e1ad	-1.6396996
78	0xbfbd25df	-1.4777182
79	0xbf0e9aff	-0.55705255
80	0xbec45677	-0.38347217
81	0xbfd9ec97	-1.7025326
82	0xbf8a79c5	-1.0818411
83	0x3e5edbbd	0.21763511
84	0x3cfebaf4	0.031095006
85	0x3c7aecac	0.015315216
86	0x3b4c8749	0.0031208566
87	0x3ddff693	0.10935702
88	0x3ed8800a	0.42285186
89	0x3fa2002e	1.2656305
90	0x3ef763ee	0.48318428
91	0x3e8c75e4	0.27433693
92	0x3d7e0067	0.062012102
93	0x3ed66099	0.41870573
94	0x3f30a267	0.68997806
95	0x3ce2ce72	0.027686331
96	0x3f064edf	0.524641
97	0x3e8cb6db	0.27483258
98	0x3e6e525a	0.23273602
99	0x3ee8e786	0.45489138
100	0xbf412949	-0.7545362
101	0xbf3ddc77	-0.7416453
102	0xbd58e3bb	-0.052951556
103	0x3b2d8102	0.00264746
104	0xbf8be297	-1.0928525
105	0x3f8dd669	1.1081058
106	0x3efcdf21	0.49388984
107	0xbe5395c2	-0.20662597
108	0xbf18d3a2	-0.59697926
109	0xbee384e2	-0.4443732
110	0x40006a4f	2.0064886
111	0x3f3506c6	0.7071346
112	0xbf0d1cd3	-0.5512211
113	0xbec08546	-0.3760168
114	0xbf3c7fe8	-0.7363267
115	0x3fa26cf2	1.2689497
116	0x3d61c7bb	0.05512212
117	0xbe2e99f4	-0.17050916
118	0xbeca430f	-0.39504287
119	0xbed58d72	-0.41709477
120	0x3eb04544	0.34427845
121	0x3ca3a1e2	0.019974653
122	0xbed044ec	-0.40677583
123	0xbf419acb	-0.7562682
124	0xbf764e42	-0.9621316
125	0xbff1460d	-1.8849503
126	0xbf2c67d8	-0.67345953
127	0xbf1f6b01	-0.6227265
128	0xbe8864e3	-0.2663947
129	0x3f43dab0	0.76505566
130	0x3eab0906	0.33405322
131	0x3db0f9ba	0.086413816
132	0x3f10df53	0.56590766
133	0x3fad6904	1.3547673
134	0x3f8e4a61	1.1116449
135	0xbe8466a2	-0.25859553
136	0xbec2fdc7	-0.38084242
137	0x3eb2e23e	0.34938234
138	0x3e6602df	0.22462033
139	0xbed62ec6	-0.4183256
140	0xbea344c9	-0.31888416
141	0xbe257a00	-0.1615982
142	0xbee09ab5	-0.43868032
143	0x3d395b3b	0.04525302
144	0x3e9b95d3	0.30387744
145	0x3e55e410	0.2088778
146	0xbec148b1	-0.37750772
147	0x3e63d4a2	0.22249082
148	0xbb952db2	-0.0045525664
149	0xbf2d0be8	-0.6759629
150	0x3e36a372	0.17835787
151	0xbf183fe7	-0.5947251
152	0x3d9c58c6	0.0763412
153	0x3f81839f	1.0118293
154	0x3f83edff	1.0307006
155	0xbe81543e	-0.25259584
156	0xbf760399	-0.9609924
157	0xbe29fda5	-0.16600664
158	0x3e18e7a3	0.14932112
159	0x3e0c9d57	0.13731895
160	0xbfaef90b	-1.3669752
161	0xbf7281df	-0.9472942
162	0xbe0aa422	-0.13539174
163	0xbd8e8c64	-0.06960371
164	0xbe0455cd	-0.12923355
165	0xbfdcd9d3	-1.7253975
166	0xbe538f08	-0.20660031
167	0x3e099059	0.1343397
168	0x3d06dea4	0.03292717
169	0xbf27a94d	-0.6549271
170	0xbf61486c	-0.8800113
171	0x3f3c04ff	0.73445123
172	0x3e9fa13a	0.31177694
173	0xbec4274a	-0.38311225
174	0xbf3beace	-0.7340516
175	0xba23232c	-0.00062231976
176	0x38b044db	8.405159e-05
177	0x3b4f7adf	0.003165893
178	0x3ae7cb50	0.0017684493
179	0xbb19eb5a	-0.0023486228
180	0x800b906a	-1.061996e-39
181	0xb310b84b	-3.3695226e-08
182	0x3ad76ef7	0.0016436268
183	0x3b06e180	0.0020581186
184	0xb78a9fa3	-1.6525219e-05
185	0x370bdb66	8.336128e-06
186	0x394ebfdd	0.00019717166
187	0x3bb42a82	0.0054982314
188	0x3c776cf6	0.015101662
189	0xaa3c698a	-1.673437e-13
190	0x28b39260	1.9936472e-14
191	0x35e716a6	1.7217433e-06
192	0x3b124141	0.0022316726
193	0x36083343	2.0295417e-06
194	0xb164a134	-3.327e-09
195	0x39dd863c	0.00042252417
196	0x3a00d5d1	0.00049146736
197	0x3c45d630	0.012074992
198	0x27e67ae9	6.3971083e-15
199	0xb5c88d84	-1.4942348e-06
200	0xbfd7d7b3	-1.6862701
201	0xbf4ded95	-0.80440646
202	0xbef77b95	-0.48336473
203	0x3e6995f7	0.22811113
204	0x3f891757	1.0710248
205	0xbf90448d	-1.127092
206	0xbf736103	-0.95069903
207	0x3ea3b6f0	0.31975508
208	0x3dcfc5c7	0.10145145
209	0xbf0d86ad	-0.55283624
210	0xbe7846d5	-0.2424577
211	0xbeb1fac1	-0.34761623
212	0xbe08ab1f	-0.13346528
213	0xbfdf87fa	-1.7463372
214	0xbf94f4c9	-1.1637203
215	0x3e895150	0.2681985
216	0x3da3c048	0.07995659
217	0xbf0702cc	-0.5273864
218	0xbf608f0f	-0.8771829
219	0xbf2a4f43	-0.66527194
220	0xbab23aac	-0.0013597808
221	0x3e5ab91c	0.21359676
222	0xbeb0a92c	-0.34504068
223	0xbf4d8b1a	-0.8029038
224	0xbf4b5554	-0.79427075
225	0xbf7a4f8a	-0.97777617
226	0xc0067df5	-2.1014378
227	0xbf6b842b	-0.9199855
228	0xbf2e23eb	-0.68023556
229	0xbe929968	-0.28632665
230	0xbf7f34e0	-0.99690056
231	0xbf809a3f	-1.0047072
232	0xbde6a14e	-0.11261235
233	0xbea714fc	-0.32633197
234	0x3f5decfb	0.8668973
235	0xbea09913	-0.31366786
236	0x3f3caf23	0.7370474
237	0x3ee50729	0.44732025
238	0xbf3d78c9	-0.7401243
239	0x3e604160	0.21899939
240	0x3f143bce	0.57903755
241	0x3f58db10	0.8470926
242	0x3ec95ab1	0.39327005
243	0xbf05d31e	-0.52275264
244	0xbe9e9810	-0.3097539
245	0x3f8487fb	1.0353998
246	0x3f98bbfb	1.1932367
247	0x3e1dfb80	0.15427971
248	0x3e3c9f3a	0.18420115
249	0x3e922484	0.28543484
250	0x3d93ed04	0.072229415
251	0x3e257649	0.16158403
252	0x3e02c0ec	0.12768906
253	0x3e02c02e	0.12768623
254	0x3c92a979	0.017903076
255	0xbe0fc733	-0.14040832

conv2.bias f4 [20]
0	0xb8bdc6fd	-9.049287e-05
1	0xb88205e6	-6.199982e-05
2	0xb899ba72	-7.330337e-05
3	0xb8db4142	-0.00010454889
4	0x38a15392	7.6926444e-05
5	0x3880ba98	6.1382714e-05
6	0xb928869f	-0.00016071879
7	0x398fab62	0.00027402776
8	0x393c4ce6	0.00017957724
9	0x388a84d6	6.6050954e-05
10	0xb7ddebb2	-2.6455007e-05
11	0xb93f26cb	-0.00018229631
12	0xb810f58b	-3.4560955e-05
13	0x393b729c	0.00017876405
14	0x391e2087	0.00015080172
15	0x388bc9f8	6.665656e-05
16	0xb8943f5c	-7.0689915e-05
17	0xb905ce9f	-0.00012760841
18	0xb847e4e0	-4.7658454e-05
19	0xb8205102	-3.8222417e-05

bn2.weight f4 [20]
0	0x3f849629	1.0358325
1	0x3f88c9ba	1.0686562
2	0x3fb5bc30	1.4198055
3	0x3f9bc543	1.2169574
4	0x3f7c555a	0.98567736
5	0x3f707848	0.93933535
6	0x3f3095b5	0.68978435
7	0x3f767881	0.96277624
8	0xbf3a952e	-0.7288388
9	0x3f1dd88c	0.6165855
10	0x3f890f80	1.0707855
11	0x3f60d5d4	0.87826276
12	0x3fab1a0f	1.3367327
13	0x3f467351	0.7751971
14	0x3f829b45	1.0203635
15	0x3f6383b9	0.8887287
16	0x3f56302e	0.83667266
17	0x3fa97f91	1.3242055
18	0x3f918117	1.136752
19	0x3f5efca0	0.87104225

bn2.bias f4 [20]
0	0xbf6d1008	-0.92602587
1	0xbf4b24e9	-0.79353195
2	0xbf5760a3	-0.8413183
3	0xbf5c7425	-0.8611472
4	0xbed68bf8	-0.41903663
5	0xbf4c5a8e	-0.79825675
6	0xbecd44ac	-0.40091455
7	0xbf5a4724	-0.852648
8	0xbf067215	-0.52517825
9	0xbeeb4a05	-0.4595491
10	0xbf5dce93	-0.8664333
11	0xbf461c42	-0.7738687
12	0xbf1b0b57	-0.6056418
13	0xbf1e98e3	-0.61952037
14	0xbef50ded	-0.47862187
15	0xbf0f1cac	-0.55903125
16	0xbedf6af3	-0.43636283
17	0xbf8e873c	-1.113502
18	0xbf151734	-0.5823853
19	0xbf296dcc	-0.6618316

bn2.running_mean f4 [20]
0	0xc11a21cf	-9.633254
1	0xc11eab33	-9.916797
2	0xc13e3ba4	-11.889561
3	0xc0f95fd4	-7.792948
4	0xc0d52cb7	-6.6617084
5	0xc133d2ac	-11.238934
6	0xc07ff4d1	-3.9993174
7	0xc059424d	-3.3946717
8	0x411db434	9.856495
9	0xbff37f20	-1.902317
10	0xc0ff5350	-7.97892
11	0xbfbf421d	-1.4942051
12	0xc117b071	-9.4805765
13	0xc1122ec4	-9.136417
14	0xc14267aa	-12.150309
15	0xc1180435	-9.501027
16	0xc0f428d4	-7.629984
17	0xc13ae79d	-11.681546
18	0xc11f1bb1	-9.944261
19	0xc09b2dfa	-4.8493624

bn2.running_var f4 [20]
0	0x42b03b84	88.11624
1	0x42eadeda	117.43526
2	0x42da1a34	109.05118
3	0x42d8cb5b	108.39718
4	0x42b21670	89.04382
5	0x42cc1bd8	102.05438
6	0x42e08f84	112.280304
7	0x42834bbb	65.64791
8	0x42de3e69	111.121895
9	0x42f13fc7	120.624565
10	0x42b88053	92.25063
11	0x429da38b	78.81942
12	0x42d70d53	107.526024
13	0x4240df6d	48.21819
14	0x42dce20b	110.44149
15	0x425c6b5c	55.104843
16	0x429d5767	78.67071
17	0x433b92e6	187.57382
18	0x4325bf0f	165.74632
19	0x42b37d2e	89.74449

fc1.weight f4 [50, 320]
0	0x3dd5d6d2	0.10441364
1	0x3e82e1d4	0.25562918
2	0x3e0ab970	0.13547301
3	0xbe279d2b	-0.16368549
4	0xbe453973	-0.19260196
5	0x3e421de0	0.18956709
6	0xbf1cb985	-0.6122058
7	0xbf6e3810	-0.93054295
8	0x3f45720a	0.77127135
9	0x3e62b959	0.22141017
10	0xbf280cee	-0.6564473
11	0xbea235e3	-0.31681737
12	0x3fcc329a	1.5952942
13	0x3f3285f5	0.6973565
14	0xbeb4440f	-0.35208175
15	0xbf2711c5	-0.6526149
16	0xbe5a56b7	-0.21322142
17	0xbf912f1f	-1.1342505
18	0x3e65968f	0.22420715
19	0x3f4e6808	0.8062749
20	0x3d7feb89	0.062480483
21	0x3ef3230b	0.47487673
22	0x3e8d43b1	0.27590707
23	0xbebdca79	-0.37068537
24	0xbf3be07e	-0.7338942
25	0x3cf50fd2	0.02991477
26	0x3bdee1a8	0.0068018027
27	0x3e49e85f	0.19717549
28	0xbf98cc0c	-1.193727
29	0xbf482664	-0.7818358
30	0xbe7a142f	-0.24421762
31	0x3eb6c37d	0.3569602
32	0x3f093ef5	0.5361169
33	0xbf3691df	-0.7131633
34	0xbf1b5582	-0.6067735
35	0x3de51047	0.11184745
36	0x3ee8ab87	0.45443365
37	0xbdb1c441	-0.086800106
38	0xbdeb2f31	-0.114836104
39	0xbeccba7c	-0.39986026
40	0x3ee9d884	0.45673
41	0x3f48e432	0.784732
42	0x3f2f01fd	0.6836241
43	0xbd01d515	-0.03169735
44	0xbf4ea5a0	-0.80721474
45	0xbf774f94	-0.966058
46	0xbf343cd9	-0.70405346
47	0x3dc4ca48	0.096088946
48	0x3f0be510	0.54646397
49	0x3ec4bf5a	0.3842724
50	0xbf3598c0	-0.70936203
51	0xbf700076	-0.93750703
52	0x3e55b57a	0.20870009
53	0x3ebd9570	0.37028074
54	0xbd4dd8f5	-0.050255734
55	0xbe80834c	-0.25100172
56	0x3f0bc8fa	0.5460354
57	0xbe5600af	-0.20898698
58	0x3efe15fc	0.49626148
59	0xbcf5debe	-0.030013438
60	0x3f757fa2	0.9589788
61	0xbf46d443	-0.77667636
62	0xbe48fbb5	-0.19627269
63	0xbf56d48c	-0.8391807
64	0xbf19685e	-0.59924877
65	0x3df1531b	0.11783429
66	0x3d3dc6f6	0.046332322
67	0xbe5882f2	-0.21143702
68	0xbf5af8ee	-0.85536087
69	0xbec59a63	-0.3859435
70	0xbe8de9fc	-0.27717578
71	0x3eadad9b	0.33921513
72	0x3e45e4b0	0.19325519
73	0x3e9a650b	0.30155215
74	0xbec2753f	-0.37980077
75	0x3e776e7e	0.24163243
76	0x3faf3c4c	1.3690276
77	0xbbb42e34	-0.005498672
78	0xbf79ed33	-0.9762756
79	0xbf53aaa6	-0.82682264
80	0xbd84cdc4	-0.06484559
81	0x3d9fee8c	0.07809171
82	0xbf36c7f5	-0.7139886
83	0xbf2e2dc8	-0.68038607
84	0xbf1cfc35	-0.6132234
85	0xbf181d70	-0.5941992
86	0xbf6c0ee7	-0.9221024
87	0x3cbfdb63	0.023420041
88	0x3f1f775b	0.62291497
89	0x3e8a104e	0.26965564
90	0xbf250060	-0.644537
91	0x3dc4ec81	0.09615422
92	0x3fd4c5d9	1.6622878
93	0xbd7a56d5	-0.061117966
94	0xbf44fc1e	-0.769472
95	0xbf7ae007	-0.9799809
96	0xbc75751e	-0.014981536
97	0xbe991cc4	-0.2990476
98	0xbf2400f9	-0.64063984
99	0xbdf85d65	-0.121271886
100	0x3f8e6f82	1.112778
101	0x3f7706d0	0.9649477
102	0xbce638fd	-0.028103346
103	0x3fa7191c	1.3054538
104	0x3f9dc443	1.2325519
105	0xbda9777c	-0.08274743
106	0xbed425e8	-0.4143517
107	0x3f6331d8	0.8874793
108	0x3ceb2ffa	0.0287094
109	0xbfbd0e80	-1.477005
110	0xbefdd7d3	-0.49578723
111	0x3e3ee2c4	0.18641192
112	0x3d927f55	0.07153193
113	0x3e31dede	0.17370173
114	0xbc15dd2f	-0.009146973
115	0xbfaaa34b	-1.3331083
116	0xbd504d3a	-0.0508549
117	0xbecf5835	-0.40496984
118	0x3c6db3aa	0.014508167
119	0xbd2c9a11	-0.042139117
120	0xbe651ca1	-0.22374202
121	0xbf8b221f	-1.0869788
122	0x3ecb251b	0.39676747
123	0x3f5b5f9c	0.85692763
124	0xbeb8e03f	-0.36108586
125	0xbf1c54c2	-0.6106683
126	0x3d0e6948	0.034768373
127	0x3f6a77a6	0.9158882
128	0xbf84c85e	-1.0373647
129	0x3e20d26b	0.15705268
130	0xbf0f1a04	-0.5589907
131	0x3ea3a3ce	0.3196091
132	0xbd2cd1d7	-0.042192306
133	0x3effd64f	0.49968192
134	0xbf846d6c	-1.0345893
135	0xbe42df61	-0.19030525
136	0xbf2e4ea5	-0.6808875
137	0x3e01641e	0.12635848
138	0xbe728e70	-0.23687148
139	0x3e74ed6d	0.23918696
140	0x3ebb3c80	0.36569595
141	0x3f86980b	1.051515
142	0x3f5ff7a7	0.8748726
143	0x3f2011f3	0.6252739
144	0xbef7989c	-0.4835862
145	0xbf45cbd0	-0.7726412
146	0xbdcf99e6	-0.10136776
147	0xbe282139	-0.16418923
148	0xbf0fe9ab	-0.56215924
149	0xbf550c54	-0.83221936
150	0xbe06cb60	-0.13163519
151	0x3eba26ec	0.3635782
152	0xbecfa176	-0.40552872
153	0xbeaa7ace	-0.33296818
154	0x3f1aeba2	0.605158
155	0x3f4e9f99	0.80712277
156	0x3e09f9fa	0.13474265
157	0x3f2c162b	0.67221326
158	0x3f565439	0.83722264
159	0x3f79be0f	0.9755563
160	0xbea8694d	-0.32892838
161	0xbdd5bc64	-0.10436323
162	0x3d6bac88	0.057537585
163	0x3eaa6a4e	0.3328423
164	0xbe410003	-0.1884766
165	0x3e45bfe0	0.19311476
166	0x3e20c7d1	0.15701224
167	0xbe8da0f1	-0.2766185
168	0x3dd9cce9	0.10634787
169	0x3f848a1f	1.0354651
170	0x3db6ebcb	0.08931693
171	0x3e6fb9be	0.23410699
172	0xbf9942da	-1.1973526
173	0x3da3e9a0	0.08003545
174	0x3f1c5a79	0.6107555
175	0x3ea2b713	0.317803
176	0x3f22142a	0.6331202
177	0x3e3c263c	0.1837396
178	0x3e6f1873	0.2334917
179	0x3f73b828	0.95202875
180	0x3e75ac19	0.23991431
181	0xbdaa1a60	-0.08305812
182	0xbda9e6f3	-0.08296003
183	0xbf8e2bf7	-1.1107167
184	0xbe2040a0	-0.15649652
185	0x3e937939	0.28803423
186	0x3e2ad6d1	0.16683508
187	0x3d8f5c3b	0.070000134
188	0xbf2fb0ab	-0.6862895
189	0xbf0fbc41	-0.5614663
190	0xbd98755d	-0.0744426
191	0x3eeee348	0.46657777
192	0x3ebd0bcb	0.3692306
193	0xbe1381bd	-0.1440496
194	0xbe237c8c	-0.1596548
195	0xbf745a98	-0.95450735
196	0xbda9830a	-0.08276947
197	0xbe9e9bb8	-0.3097818
198	0xbe13f547	-0.14449035
199	0xba802ce7	-0.0009779007
200	0x3f42cc22	0.7609273
201	0xbe8318c6	-0.25604838
202	0x3d94fcb6	0.07274763
203	0xbe2ec464	-0.17067105
204	0x3eb5ea77	0.35530445
205	0xbf89d119	-1.0766937
206	0xbf20dab6	-0.62833726
207	0xbf80971f	-1.0046118
208	0xbdc63b08	-0.09679228
209	0x3e52334b	0.20527379
210	0xbe2bf5f9	-0.1679305
211	0xbf052161	-0.5200406
212	0xbe98526b	-0.2975038
213	0xbf520097	-0.8203215
214	0xbf37b5d4	-0.7176182
215	0x3efda67e	0.49541086
216	0x3f3e2efe	0.74290454
217	0x3e503a86	0.20334825
218	0x3c68e957	0.014215789
219	0x3e2ffd5b	0.17186491
220	0x3e4bc52a	0.19899431
221	0x3d53386a	0.051567473
222	0x3c8f5d23	0.017500466
223	0x3e9e2d73	0.3089405
224	0xbeaeddae	-0.34153503
225	0x3ed5ecf3	0.4178234
226	0x3eb79f41	0.3586369
227	0xbec688ba	-0.3877619
228	0x3f06f50f	0.5271768
229	0x3f3201d7	0.6953406
230	0x3e59c314	0.21265823
231	0xbf28a89c	-0.6588228
232	0x3d36a537	0.044591155
233	0x3e67e41d	0.22645612
234	0x3dcbe6e4	0.09956148
235	0x3e60df82	0.21960261
236	0x3f9d17c0	1.2272873
237	0x3f16fc0a	0.5897833
238	0xbe9e5aee	-0.3092875
239	0xbf6bd744	-0.92125344
240	0xbf941ff0	-1.1572247
241	0x3ec8ee00	0.3924408
242	0x3d967f7b	0.07348534
243	0x3ebb87e2	0.36627108
244	0xbe24baaf	-0.16086839
245	0x3f03a996	0.5143064
246	0x3eb93daa	0.36179858
247	0x3d1da49e	0.03848707
248	0x3dad19e1	0.08452202
249	0x3e45cb29	0.1931578
250	0xbdaf1f01	-0.085508354
251	0xbd19fb43	-0.037593137
252	0x3f2664ce	0.64997566
253	0x3f3db391	0.7410212
254	0x3f2e8024	0.6816428
255	0xbe2299bc	-0.15878958

fc1.bias f4 [50]
0	0x370ba04f	8.32237e-06
1	0x37ade098	2.0727792e-05
2	0x364e0e1e	3.070461e-06
3	0x379cf324	1.870987e-05
4	0x38e88f8c	0.0001108936
5	0xb8033461	-3.1281616e-05
6	0xb689ba60	-4.104615e-06
7	0xb802510a	-3.106989e-05
8	0xb7a78384	-1.9969193e-05
9	0x35480000	7.4505806e-07
10	0x38bfb4fe	9.141302e-05
11	0x376a862e	1.3978728e-05
12	0x9aac20d6	-7.119058e-23
13	0x36adb108	5.176411e-06
14	0x3721a177	9.633942e-06
15	0xb7d7d135	-2.5727417e-05
16	0x3774d9e3	1.4594264e-05
17	0xb731542c	-1.056962e-05
18	0xb732c889	-1.06563175e-05
19	0xb7f2aa48	-2.8927941e-05
20	0x381f827e	3.8030084e-05
21	0x38000b9c	3.052839e-05
22	0xb78f35f1	-1.7072047e-05
23	0xb6a4ce64	-4.911608e-06
24	0xb61f1ae8	-2.3708508e-06
25	0x352f6910	6.5345466e-07
26	0xb7593bba	-1.2948114e-05
27	0xb80993c6	-3.280097e-05
28	0xb779323c	-1.4853253e-05
29	0x38072c73	3.2227905e-05
30	0x01950b8c	5.4750525e-38
31	0xb698b33a	-4.5508177e-06
32	0xb8440ee9	-4.6743928e-05
33	0xb7660e04	-1.3712332e-05
34	0x37f896ec	2.9634182e-05
35	0x3719a39c	9.157604e-06
36	0xb7e150ae	-2.685966e-05
37	0x37975169	1.8038512e-05
38	0xb795f561	-1.7876448e-05
39	0x01756022	4.5068365e-38
40	0xb81c3ba6	-3.724885e-05
41	0xb83536af	-4.320469e-05
42	0x36f0b434	7.173536e-06
43	0x37802dc0	1.5280093e-05
44	0x38795634	5.944651e-05
45	0x3846fe86	4.7443922e-05
46	0x3697004b	4.500185e-06
47	0x3780d39a	1.5357324e-05
48	0x374d3c4c	1.2232991e-05
49	0xb83b17b2	-4.4606342e-05

bn3.weight f4 [50]
0	0x3fa166f2	1.2609541
1	0x3f6c7bdd	0.923765
2	0x3f9e2028	1.2353563
3	0x3f8dfd38	1.1092901
4	0x3f5749b9	0.84096867
5	0x3f9a19a0	1.203907
6	0x3f987652	1.1911108
7	0xbf4a471e	-0.79014766
8	0x3f86eb12	1.0540488
9	0x3f75288b	0.9576499
10	0x3f8e84bc	1.1134257
11	0x3f8e20a1	1.1103708
12	0x3d232438	0.039829463
13	0x3f8d8909	1.1057445
14	0x3f830fc6	1.0239189
15	0x3fafc4fe	1.3731992
16	0x3f97ff7e	1.1874845
17	0x3f83a662	1.0285151
18	0x3f8fdfd9	1.1240188
19	0x3f7aecfa	0.9801785
20	0x3f694caa	0.91132605
21	0x3f929b23	1.1453594
22	0x3f87c51c	1.0607028
23	0x3f58be69	0.8466554
24	0x3f9372b6	1.1519382
25	0x3f9a2184	1.2041478
26	0x3fb0c690	1.3810596
27	0x3f79a278	0.9751353
28	0x3f8b2d91	1.0873281
29	0x3f91235a	1.1338913
30	0xbbfdd4e4	-0.007746326
31	0x3f73b8d6	0.9520391
32	0x3f98acb5	1.1927706
33	0x3f544022	0.8291036
34	0x3f9495f4	1.1608262
35	0x3f9c0efc	1.2192073
36	0x3f82a367	1.0206116
37	0x3f98fbf4	1.195189
38	0x3f9faf8b	1.2475446
39	0xbc7ee910	-0.015558496
40	0x3fbcb389	1.474229
41	0x3fa0249c	1.2511172
42	0x3f7ae5ef	0.980071
43	0x3f86dc21	1.0535928
44	0x3fa1e7c9	1.264886
45	0x3f9c18d8	1.2195082
46	0x3f53f97f	0.82802576
47	0x3fa8752a	1.3160756
48	0x3f963a22	1.1736491
49	0x3fa4d6a1	1.2878

bn3.bias f4 [50]
0	0xbda98c46	-0.08278708
1	0x3e8490d5	0.25891748
2	0xbe67a272	-0.22620562
3	0xbce2b362	-0.027673427
4	0xbdaa13bc	-0.08304545
5	0xbea01b34	-0.31270754
6	0xbea4a3fa	-0.32156354
7	0xbe43d4b5	-0.1912411
8	0xbe8b8fe8	-0.2725823
9	0x3d909b64	0.070608884
10	0x3e743670	0.23848891
11	0xbd3c5986	-0.045983814
12	0xbe0e9a91	-0.1392615
13	0xbea7d19a	-0.327771
14	0xbd8833aa	-0.06650479
15	0xbeab8383	-0.33498773
16	0xbe06f44d	-0.13179131
17	0xbef42736	-0.47686166
18	0xbd950d9f	-0.07277989
19	0xbd8ca468	-0.068672955
20	0x3c87d8c9	0.016582863
21	0xbe4f474d	-0.20242043
22	0xbe73732a	-0.237744
23	0xbead2326	-0.3381588
24	0xbe0c2bce	-0.13688585
25	0xbeb8ff7f	-0.36132428
26	0xbed1ec7e	-0.41000742
27	0xbe420310	-0.18946481
28	0xbdc39a68	-0.09550935
29	0xbc95d757	-0.018291159
30	0xbdc6b4cd	-0.09702454
31	0xbdebd7ec	-0.11515793
32	0xbd7ba5f5	-0.061437566
33	0xbd5a96e0	-0.05336654
34	0xbe0e3726	-0.13888225
35	0xbea71e32	-0.32640225
36	0xbe853748	-0.2601874
37	0xbdf11d5d	-0.11773179
38	0xbc8036a8	-0.015651062
39	0xbdd313b6	-0.10306494
40	0xbebd2782	-0.36944205
41	0xbe3f95fb	-0.18709557
42	0xbe6265f0	-0.22109199
43	0xbe13123a	-0.14362422
44	0xbe32fedc	-0.17480034
45	0x3d9a6e38	0.07540554
46	0xbe2090fe	-0.1568031
47	0xbeae1259	-0.33998373
48	0xbd4d2c3d	-0.050091017
49	0xbeaa23f7	-0.33230564

bn3.running_mean f4 [50]
0	0xbf93e437	-1.1554021
1	0xc0555715	-3.33344
2	0xc10d1da7	-8.819739
3	0xbe820a06	-0.25398272
4	0xc0b35ba3	-5.604936
5	0xc0d2381a	-6.5693483
6	0xc0f30549	-7.594395
7	0xbfeb6446	-1.8389976
8	0xc0b8c9cb	-5.774633
9	0xc032ea46	-2.795549
10	0x401bf74f	2.4369695
11	0xbf4581b6	-0.7715105
12	0xbcb15cde	-0.021650728
13	0xc0eb516e	-7.35369
14	0xc03f587c	-2.9897757
15	0xc0b930b0	-5.7871933
16	0x3f9ec5a1	1.2404062
17	0xc1114566	-9.079443
18	0xc12c968b	-10.786754
19	0xc08ce375	-4.4027658
20	0x3fea604d	1.8310639
21	0xc0dd86d0	-6.9227066
22	0xc04f72d1	-3.2413828
23	0xc0fb2221	-7.847916
24	0xc0bbd4f7	-5.8697467
25	0xc11959ce	-9.584425
26	0xc0b3b3d0	-5.6157
27	0xc05d5a0c	-3.458621
28	0xc08c1a57	-4.3782153
29	0x3f7386b2	0.95127404
30	0xbc987dad	-0.018614614
31	0xc0555599	-3.3333495
32	0x3ffce4ee	1.9757364
33	0xc0a4dc68	-5.151905
34	0xc0ea2186	-7.316592
35	0xc0a4e766	-5.153247
36	0xc0cdf8e3	-6.4366317
37	0xbf9f1547	-1.2428368
38	0xbfd921e0	-1.6963463
39	0xbcc8c512	-0.024508033
40	0xc11f671a	-9.962671
41	0xc086d5c0	-4.2135925
42	0xbfcbb3d5	-1.5914255
43	0x3e09b5ae	0.13448212
44	0xc0b4fe26	-5.656024
45	0x3fc1136e	1.5084054
46	0xc0a1b064	-5.052782
47	0xc0fa7bec	-7.827627
48	0xc0a0922d	-5.0178437
49	0xc16f2c77	-14.948356

bn3.running_var f4 [50]
0	0x43a5932c	331.14978
1	0x43bb8b5f	375.08884
2	0x43e5139a	458.15314
3	0x43b3c725	359.55582
4	0x437dccc2	253.79984
5	0x4395eb94	299.84045
6	0x439cdf63	313.7452
7	0x439503cc	298.02966
8	0x439603a6	300.0285
9	0x437f1d56	255.1146
10	0x43d30c76	422.09735
11	0x435baf68	219.68518
12	0x3b236174	0.0024929913
13	0x439488df	297.0693
14	0x43ad4a9b	346.58286
15	0x43890c37	274.09543
16	0x43b99966	371.19843
17	0x4389b5bb	275.41977
18	0x43cd3823	410.43857
19	0x43c61dc9	396.2327
20	0x43aa26df	340.30368
21	0x4389d0e6	275.63202
22	0x43b27bf2	356.96832
23	0x43c13c83	386.47275
24	0x436b17f4	235.09357
25	0x43a0e1a7	321.7629
26	0x4395b585	299.41812
27	0x439a2ed7	308.36594
28	0x437e1cf5	254.11311
29	0x43a25036	324.62665
30	0x3b295df1	0.0025843347
31	0x43df7d10	446.97705
32	0x434f702a	207.43814
33	0x43b6d33e	365.65033
34	0x438b6b71	278.8394
35	0x43d300e4	422.00696
36	0x43c372f9	390.89822
37	0x439adbba	309.7166
38	0x438c04d0	280.0376
39	0x3c08fc40	0.008360922
40	0x43b5b8e3	363.44443
41	0x43a58d6e	331.10492
42	0x438aca36	277.57977
43	0x43d7bea4	431.48938
44	0x43a0ccb3	321.5992
45	0x439f866d	319.0502
46	0x43bb83dc	375.03015
47	0x43940276	296.01923
48	0x4394b623	297.42294
49	0x43ce5d30	412.72803

fc2.weight f4 [10, 50]
0	0x3f204a71	0.6261359
1	0xbfe7445f	-1.806774
2	0xbf9b6cc9	-1.2142574
3	0x3f023b2e	0.5087155
4	0xbeb4f8d2	-0.35346085
5	0x3eba1315	0.36342683
6	0xbeee8c71	-0.46591523
7	0x3f43d095	0.76490146
8	0x3ed5b23c	0.41737545
9	0xbf2be479	-0.67145497
10	0x3e9e492c	0.309152
11	0xbe9feaf9	-0.31233957
12	0xbaad94fc	-0.0013243253
13	0xbf78e29c	-0.9722078
14	0x3f13126a	0.5744997
15	0x3ec58b3e	0.38582796
16	0xbf3b887b	-0.7325513
17	0x3ee09baa	0.43868762
18	0xbf366716	-0.71251047
19	0x3ebb1779	0.36541346
20	0xbf994710	-1.1974812
21	0xbe75ceba	-0.24004641
22	0x3e9765d4	0.29569876
23	0x3f292798	0.6607604
24	0xbf130a5b	-0.57437676
25	0xbf00bcb7	-0.50287956
26	0x3f191f91	0.5981379
27	0xbf956342	-1.1670916
28	0xbfba22fd	-1.4541928
29	0x3ea98368	0.33108068
30	0x3a01f063	0.000495678
31	0x3ed71e90	0.42015505
32	0xbea49d35	-0.3215119
33	0xbf96d267	-1.178296
34	0x3f05aee8	0.5222001
35	0xbfb0820e	-1.378969
36	0x3f25debc	0.6479299
37	0xbfa321bb	-1.2744669
38	0xbf77925f	-0.9670772
39	0xbd4475bb	-0.04796384
40	0xbfa98a47	-1.3245324
41	0xbf243c7b	-0.64154786
42	0x3ee2a610	0.4426732
43	0x3e7d4d58	0.24736536
44	0x3f10cc8d	0.5656212
45	0xbfacb990	-1.3494129
46	0xbeda249f	-0.42606065
47	0xbee1b39e	-0.4408235
48	0xbf13598e	-0.57558525
49	0xbfce0b73	-1.6097244
50	0xbf1bad6d	-0.608115
51	0x3ee2228c	0.44166982
52	0x3ed079b7	0.4071786
53	0x3ee43c54	0.44577277
54	0xbf48c581	-0.7842637
55	0xbf8cdf4e	-1.1005647
56	0xbf5516d9	-0.8323799
57	0xbf76ff77	-0.9648356
58	0xbf3f79d1	-0.7479525
59	0x3eaf8ff0	0.34289503
60	0xbf980da2	-1.187916
61	0xbfaa983d	-1.332771
62	0x3bd0d307	0.0063728127
63	0xbe438012	-0.19091824
64	0x3f08a89e	0.5338229
65	0xbf1c62c8	-0.6108823
66	0xbfa5e5cc	-1.2960753
67	0xbfb5baad	-1.4197594
68	0xbfc7fb2d	-1.5623528
69	0xbf8fd833	-1.1237854
70	0x3ee12481	0.43973163
71	0x3f2bcef1	0.6711264
72	0xbfd6ae0b	-1.6771864
73	0xbf44e3ad	-0.76909906
74	0x3edac392	0.42727333
75	0x3f2f5deb	0.6850268
76	0xbfb46894	-1.4094415
77	0xbcf693d9	-0.030099796
78	0xbe5a6dad	-0.213309
79	0xbfdb2258	-1.7119856
80	0xb8735438	-5.801415e-05
81	0xbf92634f	-1.1436557
82	0xbfa2cea3	-1.271931
83	0xbfa1c1fc	-1.2637324
84	0xbfbeb76d	-1.4899727
85	0x3f0616cf	0.52378553
86	0xbf0013c2	-0.5003015
87	0xbfadf33d	-1.3589855
88	0x3eff5f46	0.49877375
89	0xbc95e664	-0.018298335
90	0xbf8d23b2	-1.1026518
91	0x3f1798cd	0.5921753
92	0xbf582879	-0.84436756
93	0xbf7ba2c8	-0.9829526
94	0x3ee00382	0.43752676
95	0xbf5e50a0	-0.86841774
96	0x3f1eefe1	0.62084776
97	0xbf9b5424	-1.2135053
98	0xbe52c50c	-0.2058298
99	0x3f0d25ef	0.5513601
100	0x3ef0ce6b	0.47032484
101	0xbf8d2269	-1.1026126
102	0xbf402eae	-0.7507123
103	0x3f29a21a	0.6626297
104	0x3f0385b9	0.5137592
105	0xbf5f4207	-0.87210125
106	0x3ed43d24	0.41452897
107	0xbe088329	-0.13331284
108	0xbe050163	-0.1298881
109	0xbf3352e1	-0.7004834
110	0x3ed06332	0.4070068
111	0x3e2d7c65	0.16941984
112	0xbbd3637f	-0.00645107
113	0x3f1662e6	0.5874466
114	0xbf06d77b	-0.5267255
115	0x3f2be030	0.6713896
116	0xbf71ad16	-0.94404733
117	0xbee49a56	-0.44649
118	0xbf15d4c2	-0.5852777
119	0x3ecaa650	0.3958001
120	0x3ee6104d	0.44934312
121	0xbf5d3b47	-0.86418575
122	0xbf40a503	-0.7525179
123	0x3f250257	0.64456695
124	0xbf85201a	-1.0400422
125	0x3f3db411	0.74102885
126	0xbf5cedb9	-0.86300236
127	0x3ee01c87	0.43771765
128	0x3f11f533	0.5701477
129	0xbf2c901f	-0.6740741
130	0x3b03c035	0.0020103578
131	0x3bcde3f3	0.006283277
132	0xbf7f1557	-0.99641937
133	0xbf05a109	-0.52198845
134	0xbf079d50	-0.52974415
135	0xbf572ab6	-0.84049547
136	0x3f217c51	0.63080317
137	0xbec78767	-0.3897049
138	0xbf4844b2	-0.7822982
139	0x3d1c1973	0.038110208
140	0xbdbdf742	-0.09275676
141	0x3e8c79db	0.27436718
142	0xbdecc5cc	-0.11561164
143	0xbf29be79	-0.66306263
144	0x3f125cae	0.5717267
145	0x3e8c5c9d	0.27414408
146	0x3ef4683b	0.47735772
147	0xbf61663c	-0.8804662
148	0x3f07b280	0.53006744
149	0x3f03ef34	0.5153687
150	0xbe9967b2	-0.29961926
151	0x3ebec495	0.37259355
152	0xbf2beb2d	-0.67155725
153	0xbf3f64f3	-0.7476341
154	0xbf55df42	-0.8354379
155	0x3ef44f2d	0.47716656
156	0x3f10dfbc	0.5659139
157	0xbcdc6e0c	-0.026907943
158	0xbecc0fb9	-0.39855745
159	0x3ed0d169	0.40784767
160	0x3f1671a1	0.58767134
161	0x3ede1ba3	0.4338046
162	0x3a9e67cb	0.0012085376
163	0x3f1a7c1d	0.6034563
164	0xbf865e06	-1.0497444
165	0xbe0e6f95	-0.13909753
166	0xbf6d725f	-0.9275264
167	0xbf191667	-0.5979981
168	0x3f12143b	0.5706212
169	0x3f3a0903	0.7267
170	0xbf75db78	-0.9603801
171	0x3f0fc625	0.5616172
172	0xbeb54a8e	-0.35408443
173	0xbe8f1768	-0.27947545
174	0x3f07cdbd	0.53048307
175	0xbed6e72c	-0.41973245
176	0xbf080448	-0.5313153
177	0x3f232461	0.63727385
178	0x3f0f9c89	0.5609823
179	0xbfc3e39b	-1.5303835
180	0xbc561758	-0.013067089
181	0xbf7302d9	-0.9492622
182	0xbf1c51f5	-0.61062557
183	0xbe481d9b	-0.19542544
184	0x3f120950	0.5704546
185	0xbf3c6d61	-0.736044
186	0xbf9818d5	-1.1882578
187	0xbecfac34	-0.40561068
188	0xbf6a3eb7	-0.91501945
189	0xbc4cc769	-0.012498715
190	0xbec6346d	-0.38711873
191	0xbf4d2a49	-0.8014265
192	0x3f266de2	0.6501142
193	0xbfac64c1	-1.3468248
194	0xbf1697ca	-0.5882536
195	0x3ec0bdd0	0.37644815
196	0xbfc7cfa9	-1.5610248
197	0x3dae6e4f	0.085171334
198	0x3f103cb7	0.56342643
199	0x3f4d5521	0.8020802
200	0xbf490e77	-0.78537697
201	0x3e5f68be	0.218173
202	0x3f21d309	0.6321264
203	0xbf2c654f	-0.67342085
204	0x3f3efdc8	0.7460599
205	0xbf66d71a	-0.9017197
206	0x3da5af11	0.08090032
207	0xbe731186	-0.23737153
208	0xbf35d29b	-0.71024483
209	0xbf7d19d9	-0.98867565
210	0xbf9520fb	-1.165069
211	0xbed8dea9	-0.42357376
212	0xbb0801c7	-0.0020753013
213	0xbdb62899	-0.08894462
214	0xbe0e4e55	-0.13897069
215	0xbf5002cd	-0.81254274
216	0x3edee16e	0.43531364
217	0xbf5422ca	-0.82865584
218	0x3f25ad8c	0.64717937
219	0xbfa9a50d	-1.3253495
220	0x3ee7e954	0.45295203
221	0x3f15e60b	0.5855414
222	0xbf824a9b	-1.0179018
223	0xbf4a2ce7	-0.78974766
224	0xbf84710c	-1.0346999
225	0xbf096d8a	-0.5368277
226	0xbf67346a	-0.9031435
227	0xbf9589bf	-1.1682662
228	0xbf818ae9	-1.0120517
229	0x3edcb7f5	0.43109098
230	0xb9a2ff2e	-0.00031089172
231	0x3eaa2e88	0.33238626
232	0xbe8c78b6	-0.27435845
233	0xbe2cab31	-0.1686218
234	0xbf08fa65	-0.5350707
235	0x3f099948	0.53749514
236	0x3ef8ea9d	0.48616496
237	0x3efe21af	0.49635074
238	0x3ee30efa	0.44347364
239	0xbcd2206a	-0.025650222
240	0x3f0d20e0	0.5512829
241	0x3f29895e	0.6622523
242	0xbfb3118c	-1.398973
243	0xbf5c3f42	-0.86034024
244	0xbf132887	-0.57483715
245	0x3f08fd42	0.5351144
246	0x3efc560d	0.49284402
247	0x3f0cd5ed	0.55013925
248	0xbf9b6d96	-1.2142818
249	0xbf78540b	-0.9700324
250	0xbe66d926	-0.22543773
251	0x3ea49dbe	0.32151598
252	0xbf959278	-1.1685324
253	0xbf7bd8b4	-0.9837754
254	0xbe8aed8f	-0.27134368
255	0x3f2c49a3	0.6729986

fc2.bias f4 [10]
0	0x39ea0a10	0.00044639455
1	0x3fa9432c	1.3223624
2	0xbf4c1878	-0.79724836
3	0x3c39d218	0.011341594
4	0xbe06a78f	-0.13149856
5	0x3d878668	0.06617433
6	0xbf6b4ebe	-0.91917026
7	0xbe9d1482	-0.3067971
8	0x3eab8e0d	0.33506814
9	0x3e721ceb	0.23643844
